…
ut):\n        return self.main(input)\n\nNow, we can instantiate the generator and apply the weights_init function. Check out the printed model to see how the generator object is structured.\n\n# Create the generator\nnetG = Generator(ngpu).to(device)\n\n# Handle multi-GPU if desired\nif (device.type == 'cuda') and (ngpu &gt; 1):\n    netG = nn.DataParallel(netG, list(range(ngpu)))\n\n# Apply the ``weights_init`` function to randomly initialize all weights\n#  to ``mean=0``, ``stdev=0.02``.\nnetG.apply(weights_init)\n\n# Print the model\nprint(netG)\n\nGenerator(\n  (main): Sequential(\n    (0): ConvTranspose2d(100, 512, kernel_size=(4, 4), stride=(1, 1), bias=False)\n    (1): BatchNorm2d(512, eps=1e-05, momentum=0.1, affine=True, track_running_stats=True)\n    (2): ReLU(inplace=True)\n    (3): ConvTranspose2d(512, 256, kernel_size=(4, 4), stride=(2, 2), padding=(1, 1), bias=False)\n    (4): BatchNorm2d(256, eps=1e-05, momentum=0.1, affine=True, track_running_stats=True)\n    (5): ReLU(inplace=True)\n    (6): ConvTranspose2d(256, 128, kernel_size=(4, 4), stride=(2, 2), padding=(1, 1), bias=False)\n    (7): BatchNorm2d(128, eps=1e-05, momentum=0.1, affine=True, track_running_stats=True)\n    (8): ReLU(inplace=True)\n    (9): ConvTranspose2d(128, 64, kernel_size=(4, 4), stride=(2, 2), padding=(1, 1), bias=False)\n    (10): BatchNorm2d(64, eps=1e-05, momentum=0.1, affine=True, track_running_stats=True)\n    (11): ReLU(inplace=True)\n    (12): ConvTranspose2d(64, 3, kernel_size=(4, 4), stride=(2, 2), padding=(1, 1), bias=False)\n    (13): Tanh()\n  )\n)\n\n\n\n\nDiscriminator\nAs mentioned, the discriminator, \\(D\\), is a binary classification network that takes an image as input and outputs a scalar probability that the input image is real (as opposed to fake). Here, \\(D\\) takes a 3x64x64 input image, processes it through a series of Conv2d, BatchN
…
nput):\n        return self.main(input)\n\nNow, as with the generator, we can create the discriminator, apply the weights_init function, and print the model’s structure.\n\n# Create the Discriminator\nnetD = Discriminator(ngpu).to(device)\n\n# Handle multi-GPU if desired\nif (device.type == 'cuda') and (ngpu &gt; 1):\n    netD = nn.DataParallel(netD, list(range(ngpu)))\n    \n# Apply the ``weights_init`` function to randomly initialize all weights\n# like this: ``to mean=0, stdev=0.2``.\nnetD.apply(weights_init)\n\n# Print the model\nprint(netD)\n\nDiscriminator(\n  (main): Sequential(\n    (0): Conv2d(3, 64, kernel_size=(4, 4), stride=(2, 2), padding=(1, 1), bias=False)\n    (1): LeakyReLU(negative_slope=0.2, inplace=True)\n    (2): Conv2d(64, 128, kernel_size=(4, 4), stride=(2, 2), padding=(1, 1), bias=False)\n    (3): BatchNorm2d(128, eps=1e-05, momentum=0.1, affine=True, track_running_stats=True)\n    (4): LeakyReLU(negative_slope=0.2, inplace=True)\n    (5): Conv2d(128, 256, kernel_size=(4, 4), stride=(2, 2), padding=(1, 1), bias=False)\n    (6): BatchNorm2d(256, eps=1e-05, momentum=0.1, affine=True, track_running_stats=True)\n    (7): LeakyReLU(negative_slope=0.2, inplace=True)\n    (8): Conv2d(256, 512, kernel_size=(4, 4), stride=(2, 2), padding=(1, 1), bias=False)\n    (9): BatchNorm2d(512, eps=1e-05, momentum=0.1, affine=True, track_running_stats=True)\n    (10): LeakyReLU(negative_slope=0.2, inplace=True)\n    (11): Conv2d(512, 1, kernel_size=(4, 4), stride=(1, 1), bias=False)\n    (12): Sigmoid()\n  )\n)\n\n\n\n\nLoss Functions and Optimizers\nWith \\(D\\) and \\(G\\) setup, we can specify how they learn through the loss functions and optimizers. We will use the Binary Cross Entropy loss (BCELoss_) function which is defined in PyTorch as:\n\\[\\begin{align}\\ell(x, y) = L = \\{l_1,\\dots,l_N\\}^\\top, \\quad l_n = 
…
